scr/model4.pth (torch, 657467 bytes, 9 tensors)

conv1.weight f4 [16, 3, 3, 3]
000000 f5 f3 ad 3d 72 65 f1 3d cc 25 0e 3e 71 28 e1 bd
       0.08493797 0.11786927 0.13881606 -0.10994042
000010 74 51 af be c0 f3 19 be 0a 94 ee bd 5f 26 d3 3c
       -0.3424183 -0.1503439 -0.1164933 0.025775133
000020 85 53 a0 3d 4a ec a1 3d 3d 52 53 be 8a 47 41 be
       0.0782843 0.07906397 -0.2063684 -0.18874946
000030 8b 5c 8d be d7 48 dc be c8 aa 32 be 47 7b 2f 3e
       -0.27609667 -0.43024322 -0.1744796 0.1713687
000040 56 ba 29 be 6f 6d 2b 3e fe dc 0e 3e 22 09 a1 3d
       -0.16574988 0.16740964 0.1395149 0.0786307
000050 e0 ea 04 3e f2 aa fe bd a2 e9 dd bd 13 b0 5c bd
       0.12980223 -0.12434949 -0.108355775 -0.053878855
000060 fb 07 7b 3e 09 ce 3e 3e 6e 1b df 3d 2c 8a a4 bd
       0.24514763 0.18633284 0.10893904 -0.08034167
000070 e5 5b bb 3c cf 34 60 3c ee b6 95 be 86 e9 95 be
       0.022870967 0.013684466 -0.29241127 -0.29279727
000080 a5 6d 1e be 21 27 4b be b5 63 2b be 92 64 82 be
       -0.15471514 -0.19839145 -0.16737254 -0.25467354
000090 33 f2 0e 3e 80 b1 d6 bc 4e 8f 9e 3d fb ed 81 be
       0.13959579 -0.026207685 0.07742177 -0.25376877
0000a0 09 94 20 be c4 bd d1 be 1e 06 d9 be 25 0f d8 be
       -0.15681471 -0.40965092 -0.4238748 -0.42199054
0000b0 f1 69 c1 be 2e a1 a6 3e a2 21 8f 3e 51 f8 3b 3e
       -0.3777614 0.32544845 0.27955347 0.18356444
0000c0 b8 0f 00 be 2d 1c ff bd ac c5 7f be 56 8e cc be
       -0.12505996 -0.12456546 -0.2497775 -0.39952344
0000d0 dd 21 0e be 62 87 a6 be a9 41 04 be d5 a3 46 be
       -0.13880105 -0.32525164 -0.12915672 -0.19398434
0000e0 98 43 05 bd e8 48 45 bd 3b 82 9e 3d 22 c5 29 3d
       -0.032535166 -0.048165232 0.07739683 0.041447766
0000f0 23 9e c1 bd cc ad 04 be 09 2d 11 bb 2f a1 67 be
       -0.0945399 -0.12956923 -0.0022152087 -0.2262008
000100 b1 43 27 bf e3 c5 e6 be 5c 89 23 3e 88 2a 7a 3d
       -0.65337664 -0.4507285 0.15970367 0.061075717
000110 09 5c e8 bd 29 8d 12 be ae 78 ff 3c f3 59 39 bd
       -0.11345679 -0.14311661 0.031185474 -0.045251798
000120 17 eb 96 be 48 22 8a be 01 6e 17 be bf 4b 51 3e
       -0.29476234 -0.2697928 -0.14788057 0.20439051
000130 ce 16 04 3d f0 b9 5b 3e 5c 65 27 3e 90 b3 51 3e
       0.03224831 0.21457648 0.1634726 0.20478654
000140 d9 e4 7a 3e ea 41 5e bd cc 3c ae 3c 51 2c 92 be
       0.24501361 -0.05426208 0.021269225 -0.28549436
000150 ab 12 f9 3c 8f 46 36 bc 71 ce 9d bd be 61 0d be
       0.03040441 -0.011125221 -0.07705391 -0.13806817
000160 43 80 49 be e6 a6 00 be 42 65 21 be 6a 10 a6 bd
       -0.19677834 -0.12563667 -0.15761283 -0.081085995
000170 60 77 50 be 05 a5 3e 3d 2d ad 02 3e b3 c2 46 be
       -0.20358038 0.046544094 0.12761374 -0.1941021
000180 f1 f3 29 3e cc f8 1f 3e 5e a2 db ba 6d 2d c4 bc
       0.16596963 0.15622252 -0.0016756763 -0.023947442
000190 b4 7c 8a 3d b6 19 11 be c6 97 e9 3d 35 fc 76 bd
       0.067620665 -0.14169964 0.114059016 -0.060299117
0001a0 d4 5c 97 3c 04 7a 50 be ac cb 84 bd 43 fd 48 be
       0.018476881 -0.20359045 -0.0648416 -0.19627862
0001b0 c8 f7 e7 3d 39 c9 b0 3c 01 68 30 be ff 69 91 bd
       0.113265574 0.021580325 -0.17227174 -0.07100295
0001c0 e2 8f 0b be 83 55 a0 bb 76 07 96 3d 11 99 fe bc
       -0.13629106 -0.0048930063 0.07325642 -0.031078847
0001d0 c3 7c 9e bd 5d 23 c8 3d b8 d3 8b bd a7 90 9c 3d
       -0.0773864 0.0977237 -0.068274915 0.07644778
0001e0 ba 29 8f be 69 8f 40 3d 41 4a 84 3c 8e 5f 14 3d
       -0.27961522 0.047011767 0.016148688 0.03622394
0001f0 cd d9 86 be bb 9a 0f bd 3c 95 ec bd b5 a9 ca 3d
       -0.26338044 -0.03505967 -0.11551902 0.0989565
000200 61 07 9a 3d 14 11 85 be db 32 cc 3d 52 02 f4 3d
       0.07520939 -0.25989592 0.099706374 0.11914505
000210 4a 29 e3 bd 6d 1c f3 3d e2 76 b9 bd 4f a4 65 bc
       -0.1109186 0.11870656 -0.09055878 -0.014016225
000220 79 44 95 be 0b 73 21 be f1 f4 29 be 52 75 94 bd
       -0.29153803 -0.15766542 -0.16597344 -0.072489396
000230 74 6b f6 bd 91 4f d4 bd 55 10 55 bd e8 79 8e be
       -0.12032214 -0.103667386 -0.05201753 -0.27827382
000240 d9 15 0c be da 8b 0f 3e e4 25 f5 bd eb 82 74 be
       -0.13680209 0.14018193 -0.11970118 -0.23878066
000250 c7 b2 ef bd 1f 42 8e 3c 44 02 ab bd 01 2d e3 3c
       -0.11704021 0.017365513 -0.083500415 0.02773142
000260 73 82 51 be 58 61 3c be e0 c7 1e be 48 31 de 3c
       -0.20459919 -0.18396509 -0.15505934 0.027123109
000270 2c db a1 3d 0f 4e e7 bd 95 ff a4 ba 5d b3 2b be
       0.07903132 -0.11294185 -0.0012588376 -0.1676764
000280 ac 5b 73 be a2 53 27 be cf 4c 57 be db 7c ea be
       -0.23765439 -0.16340497 -0.21025394 -0.45798382
000290 7b af cc be 93 86 65 be 7a d2 c5 bc 7f 95 91 bd
       -0.3997763 -0.22414617 -0.024148215 -0.07108592
0002a0 d5 fa b3 be b0 97 86 be 89 9f a8 be 12 8a 8d bb
       -0.35152307 -0.26287603 -0.32934216 -0.004319438
0002b0 df b8 0a be 83 ae 2f be db de 01 bd ae 10 b3 3d
       -0.13547085 -0.17156415 -0.031706672 0.08743416
0002c0 8a ea 7f bd ab 6b 33 be d3 a6 18 be a8 d4 1d be
       -0.062479533 -0.17521541 -0.14907388 -0.15413153
0002d0 20 17 94 bd 1e ab 82 3d 25 32 bb 3d 59 fb ed 3d
       -0.07230973 0.06380294 0.09140424 0.116202064
0002e0 33 d2 65 3e 92 fe c4 bd da 06 ef 3c 94 a3 4e 3e
       0.22443466 -0.09618868 0.029178072 0.20179588
0002f0 b3 54 03 3e 27 7f 8e be 01 d8 04 be f0 10 a9 be
       0.12825279 -0.27831385 -0.12973024 -0.33020735
000300 5e 35 11 be a7 d7 91 be 01 53 75 bd dc b5 9c be
       -0.14180514 -0.28484842 -0.05989361 -0.30607498
000310 2d f8 5b be f4 7e a6 be 2b 5f 86 3e 5e 42 5c 3d
       -0.2148139 -0.32518733 0.26244482 0.05377423
000320 cf 39 17 3e 5d 2e bc 3d 7b fa 49 3e 82 15 a5 3d
       0.14768146 0.091885306 0.19724457 0.08060743
000330 af 2f 40 bd 49 77 58 bd 48 2e 49 3e 68 a1 45 be
       -0.046920475 -0.052848134 0.19646561 -0.19299853
000340 3d 54 1d be e8 cf 05 be f1 46 2a be b3 62 8b 3d
       -0.15364166 -0.13067591 -0.16628624 0.06805935
000350 d4 88 e8 bd a3 32 02 3e eb d7 88 bd 2d 0e 07 be
       -0.11354223 0.12714629 -0.06681808 -0.13189001
000360 47 06 05 3e 4b 37 73 3d e5 8d c8 3d 48 56 21 3e
       0.12990676 0.059378903 0.09792689 0.1575557
000370 84 86 19 3e 38 a3 8a bd eb 99 4b 3d a7 0c 24 3d
       0.1499272 -0.06769413 0.049707334 0.04005113
000380 bc e3 dc 3d 2b eb 03 be c8 22 41 be 68 c8 c8 bd
       0.107856244 -0.12882678 -0.18860924 -0.098038495
000390 db 71 56 bd 7e ab b0 bd 72 0d 86 be 38 e2 a3 3d
       -0.052354675 -0.086264595 -0.26182133 0.08002132
0003a0 42 41 6d be d7 b8 b3 3d 3c 80 9c 3d 54 a2 ef bd
       -0.23169425 0.0877549 0.07641646 -0.117008835
0003b0 6a 31 13 be 8b d7 7b be b5 1d 08 3d 20 4a 9b bd
       -0.14374319 -0.24593942 0.033231456 -0.075824976
0003c0 ef f1 32 be 4a 23 57 bd 26 ae b5 3d 8b fd ac bd
       -0.17475103 -0.05252389 0.08871107 -0.08446797
0003d0 23 12 53 be 31 c6 98 bd b9 65 ed bd 2d 07 27 be
       -0.20612387 -0.07459677 -0.11591668 -0.16311331
0003e0 7a 3c 0e 3d bb dc 68 be 56 56 d6 bd e6 31 3b be
       0.034725644 -0.22740452 -0.10465686 -0.18280753
0003f0 ab 60 56 3d c7 55 8d 3e 9b 7a 58 3d b0 c3 42 3e
       0.052338284 0.27604505 0.0528513 0.19019961

conv1.bias f4 [16]
000000 f2 a0 20 be 46 a2 f3 bb 36 c4 db bd cd ca 67 bd
       -0.15686396 -0.007435116 -0.10730784 -0.05658989
000010 ac 94 45 be 0c e6 2c ba 05 03 33 3d b1 e4 38 bc
       -0.19294995 -0.0006595559 0.04370405 -0.011284993
000020 1b 19 5b 3c 2b 84 0a be 98 cb 78 bd 96 06 43 be
       0.013372685 -0.1352698 -0.060741037 -0.19045481
000030 ef 9a c7 bd 6f e9 83 3d 11 1a 87 bd 7c dc 24 be
       -0.09746348 0.06441008 -0.06596769 -0.16099733

conv4.weight f4 [400, 16, 5, 5]
000000 d5 66 c1 bd 47 5e ff bd 9a d5 47 bd a8 83 57 bd
       -0.09443442 -0.12469154 -0.04878769 -0.05261579
000010 c4 9e d6 bd 7f b7 f6 bd 6c b0 a1 bd 87 a5 37 bd
       -0.10479501 -0.12046718 -0.07894978 -0.044835594
000020 96 1c c6 bd f6 b2 ba bd ec af 96 bd ea 28 c5 bd
       -0.09673421 -0.09116165 -0.07357773 -0.09626944
000030 61 e8 8e bd 72 28 a8 bd be 9f 5d bd f2 14 50 bd
       -0.069779165 -0.08210839 -0.05410742 -0.050801225
000040 b2 cf f1 bd 8c 33 d6 bd a8 02 b8 bd e5 98 d0 bc
       -0.11807193 -0.104590505 -0.08984882 -0.02546353
000050 9b 6a 97 bd 93 c9 3b bd 5b 67 80 bd 3a 6c 1f bd
       -0.0739338 -0.045846533 -0.062697135 -0.038921572
000060 1f a9 12 bd bc 49 96 3e 24 7b 8d 3e 29 70 ac 3e
       -0.035805818 0.2935313 0.2763301 0.3367932
000070 84 0f 99 3e a3 cf 93 3e bd 8b ad 3e 65 0e 9d 3e
       0.2989465 0.28869352 0.33895674 0.30675045
000080 3d 5a 9a 3e 59 5f b3 3e c3 f9 91 3e d0 9b 9c 3e
       0.3014697 0.35033682 0.28510866 0.30587626
000090 e3 6a c0 3e d9 c0 aa 3e 28 02 98 3e 0f 70 b7 3e
       0.37581548 0.33350256 0.29689145 0.3582768
0000a0 fd b6 c1 3e 7a 27 ba 3e c5 72 af 3e 20 6a bd 3e
       0.3783492 0.36358243 0.3426725 0.3699503
0000b0 98 90 b5 3e 77 44 88 3e 8b d0 76 3e 52 fb a1 3e
       0.3546188 0.26614735 0.2410299 0.31637055
0000c0 4d a0 a1 3e b2 21 9c 3e e5 83 0d be 4d d0 c2 bd
       0.31567612 0.30494457 -0.13819845 -0.095123865
0000d0 f5 57 d6 bd b0 13 c6 bd 2f 72 9d bd 2b 52 51 be
       -0.10465995 -0.09671724 -0.076877944 -0.20441501
0000e0 d9 a1 29 be bc f8 2c be ce 23 18 be 29 70 15 be
       -0.16565646 -0.1689176 -0.14857408 -0.14593567
0000f0 9c 9f 20 be 20 4a 56 be 6e 57 6b be 39 1b 67 be
       -0.15685886 -0.20926714 -0.2298257 -0.22568978
000100 b6 ad 2a be f0 ab 10 be 06 b9 66 be 5c 78 5c be
       -0.16667828 -0.14128089 -0.22531518 -0.21530288
000110 69 08 57 be 91 d9 47 be 60 a6 59 be d3 8b 0b be
       -0.20999302 -0.19516589 -0.21254873 -0.13627557
000120 15 e8 2a be 80 01 54 be 1e c8 53 be 9d db 14 3c
       -0.16690095 -0.20703697 -0.20681807 0.009085563
000130 a1 00 aa bc 83 f7 18 3d 89 4c 2a 3d ac 2a ad 3c
       -0.020752253 0.03734542 0.041576896 0.021138512
000140 4d bb 29 bd 2e b5 8a 3c 9a ad 51 3c a8 86 10 3c
       -0.04143839 0.016932096 0.0127977375 0.008821167
000150 5a fc 8d 3d 37 da a7 3a 06 36 8f bc 85 8a 34 bd
       0.06932898 0.0012806122 -0.017481815 -0.044077415
000160 64 2d 00 bc 05 81 04 3d 15 65 28 bd b5 eb cc 3c
       -0.007823322 0.032349605 -0.041112024 0.025014738
000170 76 02 ed 3b 81 7c ae 3c 54 ba 86 3d 11 76 6c bd
       0.0072329594 0.021299602 0.06578508 -0.057729784
000180 75 df 84 3c 2f 76 7f ba dc 1c e0 3c d6 08 82 3d
       0.016219834 -0.0009745089 0.027357511 0.063493416
000190 8e ef 0c bd 4b 15 95 3d 74 2c fe 3c 41 7a 2f 3c
       -0.034408145 0.07279452 0.031027056 0.0107103
0001a0 ef fa 93 3d c2 7b 11 3c f4 a4 c3 3b 66 f9 3b ba
       0.07225596 0.008879604 0.0059705917 -0.0007170647
0001b0 7c fa 21 3d 22 4b 61 3d 7b a8 56 3d cf af c3 39
       0.03954552 0.055003293 0.05240677 0.00037324286
0001c0 30 47 6d 3d c1 4e c2 3c ea 75 c6 3c 7d e0 74 bc
       0.057929218 0.023719193 0.024226148 -0.0149461
0001d0 76 1d 88 3c 48 82 9e 3c 98 c6 e4 3c ec f4 33 3c
       0.01661561 0.019349232 0.027926728 0.010983687
0001e0 bf 37 a6 3c 7e aa d6 bc b3 ec 3e 3d 33 c6 57 bc
       0.020290254 -0.026204344 0.046612453 -0.013169813
0001f0 a2 e6 8c 3c 1f 29 d4 bb 14 80 18 bc 4c 98 89 3c
       0.017199818 -0.0064746286 -0.00930788 0.016796254
000200 ac 82 57 3c 83 08 87 3a 2a 95 a3 bc 33 de 33 3c
       0.013153713 0.0010302219 -0.019968588 0.010978269
000210 3b 38 54 bd 97 f0 7c bd 64 58 9a bd 97 c0 17 3d
       -0.051811438 -0.06175288 -0.075363904 0.037048902
000220 34 4f 3d 3d 9b 12 49 bd 23 2d f8 bc fb 75 a3 b8
       0.046218112 -0.04909001 -0.03029496 -7.794421e-05
000230 9c 6a 74 3d 88 d5 69 3d 48 0c 19 bd 6f bd 37 bd
       0.059671983 0.057088405 -0.037365228 -0.044858392
000240 9c 5c 44 bd c4 17 1c 3d 44 bc ab bc 19 92 91 3a
       -0.04793988 0.038108602 -0.020963795 0.0011106163
000250 3e d4 8c 3b 16 2f 07 bd e9 4e 88 bc f6 e5 b1 bc
       0.004297762 -0.03300389 -0.01663919 -0.0217161
000260 e2 f8 63 bd a4 c5 0e be e8 23 f5 bd 80 3a 20 bd
       -0.055657275 -0.13942581 -0.11969739 -0.03911829
000270 4d 9c 3c bd d8 db d5 bd c6 68 04 be bc 9a b7 bd
       -0.046047498 -0.104423225 -0.12930593 -0.0896506
000280 9f d7 59 3d 3e e8 12 bd d3 7e b0 bd de b7 8e bd
       0.053184148 -0.035866015 -0.0861794 -0.06968664
000290 56 98 73 bd 42 7f 93 3d 4d ce 18 bd ee 88 a9 3c
       -0.05947145 0.07202007 -0.03730612 0.020695176
0002a0 5a cb 99 bd 86 0d 8e bd 66 dc 8d 3d 9c b9 45 3c
       -0.07509489 -0.06936173 0.06926803 0.0120681785
0002b0 5c 9e 49 bd fe 6b 27 bc fd 9c ea bc b4 88 0c bd
       -0.04922329 -0.010218618 -0.028639311 -0.034310058
0002c0 6f 50 61 bd 66 51 bb bb cb 9f fb bc ac 0e ff 3c
       -0.055008348 -0.0057164906 -0.030715844 0.031134926
0002d0 16 22 03 be ca dc b2 bd 07 c6 9b bc bd c9 63 bd
       -0.12805972 -0.087335184 -0.019015325 -0.055612314
0002e0 92 0b 2e bd c1 5e b3 bd 12 8c df bd 90 63 b5 bd
       -0.042491503 -0.08758307 -0.10915388 -0.08856881
0002f0 c1 a1 20 3c e9 7c 02 3d c7 a2 f3 bd bc 61 9d bd
       0.00980419 0.031857405 -0.11896282 -0.07684657
000300 84 87 e7 bc 58 e4 8e bd 96 ee 77 bc 8f cc ec bd
       -0.028262861 -0.06977147 -0.015132567 -0.11562454
000310 ae 10 17 be f0 43 4b bd c8 ee ac bd 56 ca 82 bd
       -0.14752457 -0.049625337 -0.084439814 -0.06386249
000320 ef 25 92 bd e2 69 a0 bd 29 fe ee bd 9c f8 b2 bd
       -0.071361415 -0.078326955 -0.11669571 -0.08738825
000330 97 bf 3f be 0d f2 6f bc a2 32 f6 bc 24 51 39 bd
       -0.1872543 -0.014645112 -0.03005344 -0.045243397
000340 bf c7 7a bd 8f 4a c5 bd ce fa 8e 3c a0 96 6b bd
       -0.06122565 -0.096333615 0.017453577 -0.057516694
000350 ed a0 c5 bd fb f5 a3 bd 24 52 d2 bd 8b 73 60 bd
       -0.09649835 -0.080059014 -0.10269573 -0.05479769
000360 c0 dc 08 bc 4f 82 2a bd 01 43 3e bd e1 a0 96 bd
       -0.008353412 -0.04162818 -0.04645062 -0.07354904
000370 da ff 0d 3d b4 94 c0 3c fe 2c ae bd cd 0b a9 bc
       0.034667827 0.023508407 -0.08504675 -0.02063551
000380 d8 55 d7 bd c9 31 3c bd 5d a7 1d 3d b1 e4 92 3c
       -0.1051442 -0.045945916 0.03848969 0.017931314
000390 62 1c 02 3e 9e aa e7 3d 06 53 00 be 32 fa 54 bd
       0.1270614 0.113118395 -0.12531671 -0.051996417
0003a0 e9 02 0d bd 76 1b 52 3d e0 8e 40 3d 71 b1 00 be
       -0.034426603 0.05129572 0.047011256 -0.12567689
0003b0 ff 5e 76 bd 4a d6 24 bd 7f 49 79 3d 61 87 dd 3d
       -0.06014919 -0.040243424 0.060861107 0.10816837
0003c0 8b 75 97 bd 3f e5 1e bd 7a 51 1c bd 02 06 87 3c
       -0.073954664 -0.038792845 -0.03816364 0.016482357
0003d0 b7 96 67 3d 07 87 09 be db eb a2 bd 65 bb cf bd
       0.056540217 -0.13430415 -0.07955142 -0.101431645
0003e0 e1 1d c9 3c 1a de a8 39 56 dd eb bd 65 d5 50 bd
       0.02455038 0.00032208936 -0.11516826 -0.05098476
0003f0 9e 55 b6 bd db c5 06 be 1e 8f dc bd fb 71 3a bd
       -0.08903049 -0.13161413 -0.10769485 -0.045518856

conv4.bias f4 [400]
000000 00 54 04 bb eb 5c 7c bd 17 51 8a bc 81 c6 14 3d
       -0.002019167 -0.06161205 -0.01688437 0.03632212
000010 66 3d 21 3d 8e b4 3b bc 0c e1 60 bc 48 c0 7b bd
       0.039365195 -0.011456622 -0.01372553 -0.06146267
000020 54 5a 4c 3c 48 61 54 3c 15 d0 8a 3d 1a 0d 24 3c
       0.012472708 0.012962647 0.0677797 0.010012889
000030 af 69 d9 bb 68 f4 8f 3b 05 ad 17 3c 5b 25 81 3d
       -0.006634913 0.004393149 0.00925756 0.06305953
000040 1b 62 9d 3d ce e7 12 3b 13 ae 8c bc 92 a8 cf 3c
       0.07684728 0.0022415998 -0.017172849 0.025348935
000050 ec c4 54 3c 30 97 f4 bc 33 03 01 3c e1 fe 89 3d
       0.012986403 -0.029857248 0.007874298 0.067380674
000060 9b 05 06 bc 1c d9 24 bc 28 dc d1 bc 8a 39 bf bc
       -0.008180047 -0.0100615285 -0.025617674 -0.023342866
000070 80 71 90 bc f9 e1 e2 bc b3 d2 75 bd f4 1c 67 3d
       -0.017632246 -0.027695643 -0.06001539 0.056424096
000080 ea 8d da bc 6a a6 04 bc f3 25 2c bb 0b 5a 1b 3c
       -0.026678998 -0.008096317 -0.0026267737 0.009481917
000090 86 47 70 bd 5c 4b 81 bb 55 bb 48 3d 21 f6 12 3c
       -0.05866196 -0.003945751 0.04900678 0.0089698145
0000a0 0b b0 fa bb cc c8 e2 3b f6 ae 25 3d aa 4b d5 3b
       -0.0076503805 0.0069209095 0.04045006 0.006509264
0000b0 1c 8e 87 3d 76 2e 98 bb 40 65 43 3d b5 28 8c 3c
       0.06618902 -0.0046442105 0.04770398 0.017109254
0000c0 27 56 e5 3c a1 5a ba 3b f3 4b 0b bc 32 f3 69 bc
       0.027995182 0.0056870733 -0.008501994 -0.014279174
0000d0 40 22 82 bd 52 7e a8 bc 4d 79 49 3b 25 93 64 bc
       -0.06354189 -0.020568047 0.0030742467 -0.013951098
0000e0 01 94 c8 bc ee 40 83 bc 3f 29 00 3a 42 fd 12 bd
       -0.024484636 -0.016022172 0.00048889586 -0.035886057
0000f0 e6 b9 79 3d 0d c0 b4 bd d8 b0 3c bc 30 89 94 bc
       0.060968302 -0.08825693 -0.011516772 -0.018131822
000100 cc 51 9a 3c 8a 79 3e 3d d9 5d 86 bc 4e b1 05 3c
       0.018837832 0.046502627 -0.016402172 0.0081599485
000110 a7 00 84 3b ff b6 0e 3d 2c 0f b5 3b a0 62 8f ba
       0.004028398 0.034842487 0.0055254903 -0.0010939427
000120 d4 27 54 bc b7 96 ef 3c a5 0e 24 bc 4a d5 b9 ba
       -0.012948949 0.029246671 -0.010013257 -0.0014177945
000130 24 5d ac bd 36 d3 ff bb 60 6a 7f bb d0 20 e0 bb
       -0.08416203 -0.0078071607 -0.0038973317 -0.006839849
000140 55 28 33 3b df c0 8e 3d 5e a5 7a bc dd 89 97 3d
       0.0027337272 0.06970381 -0.015298216 0.07399342
000150 6b c8 ee bc f3 e5 98 3b 99 fb c8 3c e0 62 25 3c
       -0.029148301 0.004666084 0.024534034 0.010094374
000160 73 b3 89 bd 6e e9 2f 3c ec ab 28 3c fc ff 07 3d
       -0.0672368 0.010736806 0.010294896 0.03320311
000170 00 f4 75 bd b4 3c 8c bc 69 4c 40 bc 1a df 03 3c
       -0.06004715 -0.01711879 -0.011736968 0.008048797
000180 3d 72 53 bb 75 d8 4e 3c e2 56 97 3b b3 6b c2 3c
       -0.0032264136 0.01262485 0.0046185115 0.023732996
000190 cc 1e de 3c 02 6a 3c bd 17 34 db 3b c8 86 19 3d
       0.027114294 -0.045999534 0.006689559 0.037482053
0001a0 aa 35 da 3c 0e 16 03 3c 79 db ca 3c ff db 21 bc
       0.026636917 0.008000864 0.024762856 -0.009879111
0001b0 f7 a9 65 3c 95 7e 9a 3a 28 e3 bb bb cf a2 f3 3c
       0.014017574 0.0011786992 -0.0057338662 0.02974072
0001c0 7a 87 86 3b 35 0b 71 3c 62 52 40 bb 6c 21 89 bc
       0.0041055055 0.014712145 -0.002934598 -0.01673957
0001d0 ed 16 95 bc 71 b0 99 3b 97 cb 30 bd 9a c7 d8 3c
       -0.018199408 0.004690223 -0.04316291 0.026462365
0001e0 55 2e 45 3c db 1f 2a 3c 9f 3c dd bc 7e 32 b6 bb
       0.012034972 0.0103835715 -0.027006445 -0.0055602184
0001f0 09 f2 27 3c d2 53 1f bd 08 67 59 3d 70 45 45 3c
       0.010250577 -0.038898297 0.053076774 0.012040481
000200 be 98 74 3b 03 1c 2e 3c 94 36 cb 3b 9d d2 13 bd
       0.0037322487 0.010626796 0.0062015746 -0.03608953
000210 f8 65 ba 38 74 20 17 bd 1e 7a 06 bc e7 56 25 bc
       8.888164e-05 -0.036896184 -0.008207826 -0.01009152
000220 03 ed 7c 3a 00 45 dc 3a e5 31 9b 3b f5 c5 14 bc
       0.00096483546 0.0016805232 0.0047361725 -0.0090804
000230 06 2b f1 3c 4f c4 9f 3b a2 0f 53 bc 4b 37 5c 3d
       0.02943946 0.0048756967 -0.012882145 0.05376367
000240 28 1e 92 3b e8 60 07 bd b7 26 63 3c 8b 53 79 bc
       0.0044591613 -0.0330514 0.013864211 -0.015217672
000250 4b 26 4b 3d 7d 14 82 bb 6b bf 3c bc 64 2e fc 3b
       0.049597066 -0.0039697275 -0.011520247 0.00769596
000260 4d 8a fe 3c e6 6e 32 bc 43 0e 23 3c 73 4e b6 ba
       0.031071806 -0.010890698 0.009952131 -0.0013908878
000270 7c cf 29 bd 3b ee b8 3c 94 b9 69 3b 74 99 d1 3b
       -0.04145764 0.022574535 0.0035663592 0.006396467
000280 71 dc 9b bd 6f cd c4 3b f8 d0 b3 bc 97 92 01 bd
       -0.07610405 0.006005935 -0.02195023 -0.03163394
000290 c4 f0 54 3b a9 42 f2 3a e1 57 e9 bb 7a d3 41 3d
       0.003249214 0.0018483001 -0.0071210717 0.04732082
0002a0 24 47 ab 3c 95 c0 53 3d f7 50 77 3a 9f ec d9 bb
       0.020907946 0.051697332 0.0009434367 -0.006650522
0002b0 65 35 61 3c d8 79 90 3c 5b aa 88 bc 02 b9 32 bd
       0.01374564 0.017636225 -0.016682794 -0.04363347
0002c0 f1 af 12 bc a2 66 b2 bb 3f 20 6a bc 57 f9 81 bc
       -0.0089530805 -0.0054443637 -0.014289915 -0.015865965
0002d0 87 1a 2d bd cb a9 d3 3c a8 36 15 3c 3b 8d 1d 3d
       -0.042261627 0.0258378 0.009107269 0.038464766
0002e0 f2 78 b4 bc 2e 74 6c bc 9c f2 1c 3c 49 94 87 bd
       -0.022030327 -0.014431996 0.009579327 -0.0662008
0002f0 b7 f2 57 3d f3 db 46 3c 0b 4e e7 bc 42 fa 97 3b
       0.052721705 0.012137401 -0.028235456 0.0046379874
000300 84 27 2c 3d 9f f5 0a bc d2 91 23 bc f9 e0 61 3c
       0.042029873 -0.008481412 -0.009983497 0.013786548
000310 49 de 99 bc 2b 9d 15 3d 9c 21 ca ba ac 7e 9f bb
       -0.018782752 0.03652684 -0.0015421393 -0.0048673954
000320 1b 64 9a 3d bc a8 83 3d 25 29 5f 3c b5 93 32 bd
       0.07538625 0.06428668 0.013620649 -0.043597896
000330 d0 77 ad bb e8 68 ce 3b a4 15 b7 bb 42 fa 10 3b
       -0.005293824 0.006299127 -0.0055872966 0.0022121822
000340 ba 73 ea 3b be cd 59 3c 26 08 16 3c 30 4a e8 3a
       0.007154909 0.013293682 0.009157216 0.0017722305
000350 f4 70 f8 bb 8b 04 8d 3c 60 be a6 3b 92 dc 6e 3c
       -0.0075818244 0.01721408 0.0050886124 0.014578955
000360 54 06 3d 3c 0d 77 a4 bc f8 93 54 3d 2f e0 ac bb
       0.011537153 -0.0200763 0.051898926 -0.005275748
000370 fb 4c b1 bd a8 d4 16 bd 0b 27 7f 3b a1 90 75 3c
       -0.08657261 -0.0368239 0.0038933184 0.0149880955
000380 40 01 9c bc 73 2d ef 3c 45 26 f8 3c 71 df 01 bc
       -0.019043565 0.029196477 0.030291686 -0.007926808
000390 12 e7 92 3b cb cd 77 3d 5a 2c dc bc f7 18 d2 3c
       0.004483112 0.060498994 -0.026876617 0.02564667
0003a0 b0 86 f9 bb e5 18 a0 bc fe 33 8c bc 90 f9 cc bc
       -0.007614933 -0.01954312 -0.017114636 -0.025021344
0003b0 81 7a 1e bc a6 1e b4 3c a6 d8 3a bc 4b f5 a9 bb
       -0.009672762 0.02198727 -0.011404192 -0.005186712
0003c0 84 b5 cd bc 38 a1 39 3c 7e 73 4d 3c 67 0f 1f bd
       -0.025110967 0.011329941 0.0125397425 -0.03883305
0003d0 3c 71 ad bc 55 12 20 3b 1f 7a f9 3c 41 31 54 bc
       -0.021172158 0.002442499 0.03045374 -0.012951196
0003e0 e5 b4 83 3c fe ec 10 bc 13 a1 55 3c c7 50 e5 3c
       0.016077468 -0.008845566 0.013038891 0.02799262
0003f0 33 03 3e 3d 63 38 4c 3b 6a fd e5 bc 32 1d 02 bd
       0.04638977 0.0031161539 -0.028074939 -0.031766124

output_p.weight f4 [1, 400, 1, 1]
000000 66 14 82 bc e5 52 25 bd 58 60 00 bc 0e 92 10 bd
       -0.015878867 -0.040362258 -0.00783547 -0.03529554
000010 c2 5c 19 bd 1a de 8b bc 80 50 85 bc f6 6f 85 bc
       -0.037441976 -0.01707368 -0.016273737 -0.016288739
000020 d0 2f ca bc 4c ac 53 3c b8 58 01 bc 8d e8 c5 bc
       -0.024681002 0.012919497 -0.007894687 -0.02415874
000030 ba c0 cb 3c d5 45 17 bd c0 31 dc bc c4 4b 74 3c
       0.024872173 -0.03693183 -0.026879191 0.014910642
000040 c9 df 10 3d 66 5d e8 3c da af 8a 3c 62 ed 95 3c
       0.03536967 0.028364848 0.016929556 0.01830167
000050 e0 a9 03 3c 38 44 4a 3c 46 92 c5 3c 4d e9 05 bd
       0.008036107 0.012345366 0.0241176 -0.032693196
000060 00 40 d4 bc fc 0d 6d 3c 91 ed 01 3d 4a 5f 94 3c
       -0.025909424 0.014468666 0.0317207 0.018111844
000070 00 93 ef 39 74 26 66 3c 40 50 ae bb 74 bd 20 3c
       0.00045695156 0.014047254 -0.005319625 0.009810794
000080 ea d0 a4 3c 00 46 15 3c 27 2b 9b bc c4 de 8d bc
       0.02011915 0.009110928 -0.018941475 -0.017318137
000090 cd d6 ac bc f1 be 30 3d 2f 09 3c 3d 3a 94 d8 3c
       -0.021098519 0.043150846 0.045907196 0.026437867
0000a0 ad bc 2e 3d 28 a0 ad 3b 4d 15 0f bd 6e c3 05 bd
       0.042660404 0.005298633 -0.034932423 -0.03265708
0000b0 76 6e bf 3c e8 57 e9 bb 00 3b 25 bd ae 4f ed 3c
       0.023368102 -0.007121075 -0.04033947 0.028968658
0000c0 af e8 35 3d 9d 17 e7 bc 16 db df 3c 4f 46 3e 3d
       0.044411357 -0.028209502 0.027326148 0.04645377
0000d0 45 f0 09 3d c6 b8 8c bc 3f 6d 31 bd ee bc 83 3c
       0.033676405 -0.01717795 -0.043317076 0.0160813
0000e0 30 5b 08 bb b5 12 1e 3d 11 b3 2f 3d c7 e0 d2 bc
       -0.0020806305 0.03859206 0.04289538 -0.025741948
0000f0 77 bc b4 bc 00 99 fb b9 f2 64 34 bd c4 9b 70 3c
       -0.022062523 -0.00047988445 -0.04404158 0.014685575
000100 80 28 09 bd aa d5 eb bc 14 bd 36 bc d0 62 a3 bc
       -0.03348589 -0.028788406 -0.011153478 -0.019944578
000110 30 fd 4a 3b 4c 07 4e 3c 7f 21 37 3d ef 7b 3e 3d
       0.0030973665 0.012574982 0.04470968 0.04650491
000120 80 9a 7f ba 28 e4 44 bc 73 1c 4a 3d c6 11 ac 3c
       -0.00097505003 -0.012017287 0.049343538 0.021004569
000130 e0 56 6e bb ab 6d 43 bd 70 f8 92 bc 80 49 fe 3b
       -0.00363677 -0.04771201 -0.01794073 0.0077602267
000140 c0 a7 6e bc 76 5b 97 bc 6a 0b e4 3c 46 d6 06 bd
       -0.014566362 -0.01847623 0.027837474 -0.03291919
000150 f7 32 e8 bc ed 6a 39 3d 08 22 3f bc b9 30 0f 3d
       -0.028344614 0.045267988 -0.0116658285 0.034958575
000160 b7 76 9f bc 00 32 7a b9 d2 62 ed 3c 50 87 70 bb
       -0.019465787 -0.00023860484 0.028977785 -0.0036701746
000170 c0 18 0a 3a 32 d8 cc 3c 40 12 ca ba b4 d7 0a bd
       0.000526797 0.025005434 -0.0015416816 -0.033897117
000180 da bb b3 3c 07 f3 30 bd 1d c7 32 bd 2e 2d e0 3c
       0.02194016 -0.04320052 -0.04364692 0.027365293
000190 00 7a 6a ba 61 b7 14 3d b0 fd c6 3b 66 a0 82 3c
       -0.0008944571 0.036307696 0.0060727224 0.015945625
0001a0 d0 2a 29 3b c8 95 39 bd d5 8d 0b bd 21 a0 34 3d
       0.0025812872 -0.04530886 -0.03407081 0.044098023
0001b0 19 ec 1c 3d 74 44 2c bc a0 b6 32 3c 2c 25 96 bc
       0.038311098 -0.010514367 0.010907799 -0.018328272
0001c0 98 85 9a bb 4c 8a 67 3c 52 8f d4 3c 4d f8 e0 bc
       -0.0047156326 0.014132094 0.025947247 -0.027462149
0001d0 54 b3 5b 3c b2 18 f1 3c 20 e3 9c bc 10 d6 44 bd
       0.013409454 0.029430721 -0.01915127 -0.04805571
0001e0 84 db 07 bd 1a 44 89 bc 8e 45 94 3c c4 63 90 bc
       -0.03316833 -0.016756106 0.018099573 -0.017625697
0001f0 c8 ab 23 3c aa 5d ff bc 28 22 63 bc 28 38 87 bb
       0.009989686 -0.031172592 -0.013863124 -0.0041265674
000200 46 58 8d bc 70 78 a9 bb 3d 9c 4a 3d b4 9c 5e bc
       -0.017254006 -0.005171828 0.049465407 -0.013587166
000210 58 77 86 3b a8 b4 0e 3c 44 fa 61 3c 40 c5 3f bd
       0.0041035824 0.008710064 0.013792578 -0.04681897
000220 92 e6 9c 3c 34 b3 03 3c 58 72 f2 bb ec a7 6b 3c
       0.019152913 0.008038331 -0.0073988847 0.014383297
000230 2d c2 3d bd 80 06 4c 3b a5 44 43 3d 30 59 96 bc
       -0.04632776 0.0031131804 0.047672886 -0.018353075
000240 52 4f 85 3c f7 df ad bc 58 46 7b bc d8 16 ae bb
       0.016273174 -0.021224959 -0.0153365955 -0.005312782
000250 4d f4 31 bd 72 9e f4 3c fe 36 df 3c 56 5b f8 3c
       -0.043445874 0.029860709 0.027247902 0.03031699
000260 60 67 ff bc 58 c9 46 3c 3a 49 ef bc b6 34 b5 3c
       -0.031177223 0.012132965 -0.029209722 0.022119861
000270 95 0a 03 bd 5a 95 8a bc bd 1c 26 3d 55 ef 48 3d
       -0.031992514 -0.01691692 0.04055475 0.04905637
000280 c0 a1 96 3b 80 64 93 3b aa 08 83 bc d4 c0 3a 3c
       0.004596919 0.0044980645 -0.015995342 0.011398513
000290 ce 2a a2 3c ad d7 ba bc 29 c8 05 3d 6f da 41 bd
       0.019795801 -0.02280792 0.03266159 -0.047327455
0002a0 70 17 fc bc 0e 58 96 3c 78 06 43 bd 00 58 f1 3a
       -0.030772895 0.018352535 -0.04761359 0.0018413067
0002b0 a0 7a bc 3a 02 7a 9e 3c 86 9f af 3c 86 36 ca 3c
       0.0014379807 0.019345287 0.021438371 0.024684202
0002c0 ee 09 05 bd b3 c1 0f bd 60 04 37 3c b2 7e ab 3c
       -0.032480173 -0.035096835 0.011170477 0.020934436
0002d0 b2 74 b8 3c 88 b7 13 bc 98 4c f5 3b 4d 4f 27 3d
       0.022516582 -0.009015925 0.0074859373 0.04084711
0002e0 c2 df d6 3c b4 d8 0b bd 99 76 37 3d 41 ee 0a 3d
       0.026229743 -0.03414221 0.044790838 0.033918623
0002f0 20 f8 cf bc 50 9c d1 bb 22 fa 48 bd 16 49 89 3c
       -0.02538687 -0.0063968077 -0.04906667 0.016758483
000300 e0 f5 6b bb 5b d8 4a 3d a3 18 2f 3d 6b 1a 2c 3d
       -0.0036004707 0.04952274 0.042748105 0.04201738
000310 4d c2 3f bd d3 02 21 bd ed 34 ee bc d0 74 3e bd
       -0.04681616 -0.039309334 -0.029077971 -0.04649812
000320 83 fd 4a bd e0 3b 29 bb a0 86 74 bc ec 97 60 bc
       -0.049558174 -0.0025823042 -0.014924675 -0.013708096
000330 1c 91 77 3c 7d b9 4c bd f2 ea 04 bd ff 07 39 bd
       0.01511028 -0.049981583 -0.032450624 -0.04517364
000340 36 ec e7 3c ae 95 e9 3c 6f c8 42 bd de 46 f1 3c
       0.028310876 0.028513756 -0.04755443 0.029452737
000350 c1 54 3e 3d 7f 57 0c 3d 50 1e f3 3b cd 5c 40 bd
       0.046467546 0.03426313 0.007419385 -0.0469635
000360 00 5b fd b9 1d b5 15 bd 20 33 73 3b 42 52 d4 3c
       -0.0004832372 -0.036549676 0.003710933 0.02591813
000370 66 1d f0 3c dd 04 9e bc 1d 13 a4 bc b3 f1 37 bd
       0.029310893 -0.019289428 -0.020028645 -0.044908237
000380 da 0a 12 bd 65 86 3a 3d e8 ca ec bb 30 b9 ae bb
       -0.03565488 0.045538325 -0.0072263367 -0.0053321347
000390 37 53 00 3d d6 35 24 bd 00 77 74 bc a8 dc 1c 3c
       0.03132936 -0.040090404 -0.01492095 0.009574093
0003a0 ea af a2 bc 74 92 0a bd b6 8b c6 3c 41 9a 30 3d
       -0.019859273 -0.033831075 0.024236541 0.043115858
0003b0 12 15 9a 3c 6b 7c 0f 3d a0 f4 c7 3a 0d 32 24 bd
       0.018808875 0.035030764 0.0015255399 -0.040086795
0003c0 3b 37 2f bd ba 30 87 3c 1f 9b 49 bd bd 18 ab bc
       -0.04277728 0.016502727 -0.0492202 -0.02088582
0003d0 08 39 42 bc e8 cf b6 3b e2 ec 3c bd f1 8e 2b 3d
       -0.011854418 0.0055789836 -0.046124347 0.041884366
0003e0 10 57 22 bd 87 c4 a3 bc ec 98 77 bc 31 4a 02 3d
       -0.03963381 -0.019991172 -0.015112143 0.031809036
0003f0 3d 28 47 3d b1 ef 3b 3d 9e a1 cc 3c c6 ac a1 3c
       0.04862236 0.045882884 0.024979409 0.019735705

output_c.weight f4 [2, 400, 1, 1]
000000 1b e2 ff bd ca 3d 67 3f b0 50 0f be 7f 77 0e 3e
       -0.12494298 0.9032866 -0.13995624 0.13912772
000010 3e 70 29 3e 59 e9 00 bd bb 29 24 bd ab bd 00 be
       0.16546723 -0.031472538 -0.04007886 -0.12572353
000020 d9 2b c4 3c fa 50 36 bb 1b 18 11 bf 4c 3c ca bc
       0.02394669 -0.0027819262 -0.5667741 -0.024686955
000030 76 21 ef bd d7 39 20 bf 73 bf 11 bc fe a3 db bc
       -0.11676304 -0.62588257 -0.008895743 -0.026811596
000040 f3 62 37 be 3c 0b 87 bc ce 10 c3 bc f4 78 a8 3c
       -0.1790884 -0.01648485 -0.023811724 0.020565487
000050 e5 79 16 3c ba 98 82 be aa a0 35 bc d7 ad e8 3d
       0.009184335 -0.25507146 -0.011085669 0.11361282
000060 a3 d4 0f bc 18 ad 8c 3c 98 73 1b 3f 48 4d 0a be
       -0.008778724 0.017172381 0.6072326 -0.13506043
000070 66 53 01 bb c2 dd 03 3f 21 82 50 3f 76 18 ff be
       -0.0019733547 0.5151025 0.8144856 -0.4982335
000080 32 79 89 3e fd 0b 0f bc f4 3b 97 bc d6 3a 45 3c
       0.26850277 -0.008730886 -0.018461205 0.012037953
000090 d1 bc ce 3e ef 7f 42 3d 04 14 ad be 89 68 9a bc
       0.4037843 0.04748529 -0.33804333 -0.018848674
0000a0 1c e8 c6 3c b5 63 b3 3c 84 4d 6b bf 38 d4 0f 3b
       0.0242806 0.02189813 -0.91915154 0.002194656
0000b0 28 85 0f bf 2e a8 42 3d 33 cd d2 be 52 e7 d0 bb
       -0.56062555 0.04752367 -0.4117218 -0.006375232
0000c0 5c fb 52 be ca 5a bd 3c 19 80 9e bc 88 1d 13 3f
       -0.20603698 0.02311458 -0.019348191 0.57466936
0000d0 30 93 16 3f 38 2f 92 bd ea 4b aa 3d 71 2d 0c bd
       0.5881834 -0.071379125 0.08315261 -0.034223024
0000e0 62 27 1b 3e d7 cb 8d 3e d5 a4 29 3e 6b c1 f2 bb
       0.15151742 0.2769458 0.16566785 -0.007408311
0000f0 13 6c 2d bf 11 cf 20 3f 3a 6e 8a bd 36 1d 19 be
       -0.67743033 0.6281596 -0.06759305 -0.1495255
000100 36 2a 53 bf 71 88 98 be 72 1d 0f 3d 22 b9 b4 bc
       -0.82486284 -0.29791597 0.03494019 -0.022060934
000110 06 9e d8 3c ef 28 d8 3d 8b 2e f4 bb 6c bc 1c 3b
       0.026442539 0.105546825 -0.0074518374 0.002391602
000120 fb 00 31 3f 0d 5b de 3d b6 12 61 3c b2 37 25 3c
       0.6914212 0.1085721 0.013737371 0.01008408
000130 f5 dd 0c 3f 88 f5 be ba b9 1e d9 3c 4d c9 87 be
       0.5502618 -0.0014569024 0.026503908 -0.26520768
000140 f2 17 3f bd c1 f0 2e bf 09 bd 3d bd 25 eb 16 be
       -0.046653695 -0.6833611 -0.046322856 -0.14738138
000150 43 06 11 be 8e f9 a0 3c 53 ff 12 3d 64 f8 0f 3c
       -0.14162545 0.019650247 0.035888027 0.008787248
000160 cb 14 41 3e c4 85 16 3e 5a 63 b6 3e 8e f2 b1 be
       0.18855588 0.14699465 0.35622674 -0.34755367
000170 84 c4 94 3e 4b b5 8c bd 78 0f c4 3e b5 99 bf 3a
       0.2905618 -0.068705164 0.38293052 0.0014617952
000180 ab 3e 0b 3d 60 2c 78 be 74 ef df 3c 68 e2 14 3e
       0.03399531 -0.24235678 0.02733586 0.14539492
000190 ee 97 fd 3d db 39 84 3f e0 8c aa 3c b5 b0 91 3e
       0.12382494 1.0330156 0.020819128 0.2845513
0001a0 62 12 27 3d 90 f8 19 bd 37 c9 da be 30 83 d8 bc
       0.040789016 -0.037590563 -0.4273164 -0.026429743
0001b0 7f 03 21 3d 18 25 89 bc b4 06 9e bc df 28 d2 be
       0.039309975 -0.01674132 -0.019290306 -0.41046807
0001c0 b1 fa c9 bb 61 4b b8 3d 7f 13 1d bd 9b 58 96 be
       -0.006163918 0.089987524 -0.03834867 -0.29364476
0001d0 c4 27 7f bd 30 f0 eb bc 6b 48 fa 3e 20 e5 37 3e
       -0.062293783 -0.028801054 0.48883376 0.17958498
0001e0 7f d9 52 bc c5 26 56 be ba 4e e1 bd 42 b7 71 bc
       -0.012869238 -0.20913227 -0.11001344 -0.014753165
0001f0 a1 4c 9b 3d 80 b9 5d be aa 3c 34 bf 8c 99 58 3e
       0.07582975 -0.21652794 -0.70405066 0.21152323
000200 7b 67 88 bd 6e b4 72 bb 9b 69 5a bd 5d ed 6c be
       -0.06660362 -0.0037033814 -0.05332337 -0.23137422
000210 77 f4 d9 3c 6b 9a 38 be fc e4 98 3b 6a 56 20 be
       0.026605828 -0.18027656 0.004665969 -0.15657964
000220 1f 94 04 3e 90 eb 23 3c 29 41 ff bc 14 72 02 3d
       0.12947129 0.010004893 -0.031159 0.031847075
000230 57 da 9f 3d 3a fd b6 bb 3a b1 18 3c cc 88 4a bf
       0.07805317 -0.005584386 0.009319598 -0.79114985
000240 bd 13 00 3d ab 15 9b be a8 4d d8 bd 3b 49 b8 bc
       0.031268824 -0.3028997 -0.10561687 -0.022495857
000250 d3 d4 03 bf 4c 9f 01 3d 22 b3 cb 3b e0 96 fd ba
       -0.5149662 0.031646058 0.0062164227 -0.0019347332
000260 9e 9e 8b be c1 37 a6 3c c6 0b 1f 3d 9c 43 27 3e
       -0.27269453 0.020290257 0.038829587 0.16334385
000270 12 af 35 3e ef 77 05 3d d6 fe 0b 3e 5f 5a 05 3e
       0.17742565 0.03258508 0.13671431 0.13022755
000280 23 7f 81 3d 4c 17 c2 3c c2 8d 3e 3e 74 98 ea bd
       0.063230775 0.02369275 0.18608764 -0.114548594
000290 5e da 2f 3c 04 79 fa 3c 32 3d 0a bd 69 0e 39 bf
       0.010733215 0.030575283 -0.033749767 -0.72287613
0002a0 ba 90 43 bf 45 c3 96 3d 2b 86 37 3c 3a 18 5f bc
       -0.7639271 0.073614635 0.011201422 -0.013616616
0002b0 42 38 34 bf cf f6 b3 3c fb cb ed bd da 4d 0d be
       -0.7039834 0.021968273 -0.11611172 -0.1379923
0002c0 ea 9d d6 bd b0 35 85 bc 0f 77 01 bd 7e 4d ae 3b
       -0.104793385 -0.016260952 -0.031607684 0.0053192964
0002d0 f8 a3 07 be 98 37 48 3e f2 55 d8 bc ed 1b 2c bf
       -0.13246143 0.19552457 -0.02640817 -0.6723011
0002e0 0b 33 2b be 2d 5d c3 bd 05 46 8b 3c 5f 4d c6 3e
       -0.1671869 -0.09539256 0.017001161 0.38730904
0002f0 8e b6 06 bd a0 52 09 3c 90 bd f5 bd 6c 3d 79 3c
       -0.03288894 0.008381516 -0.11999047 0.015212398
000300 ca 2c ba be 7a c2 34 3d 08 15 91 bc 73 bd 14 3d
       -0.36362296 0.04413078 -0.017710224 0.036313485
000310 b5 34 d5 bd d8 54 75 3e 4e a6 c0 bb 4c d5 80 be
       -0.10410444 0.23958147 -0.0058792 -0.25162733
000320 a4 a8 35 bf 31 21 30 bf 64 73 e6 3b 62 6a 94 3d
       -0.7096045 -0.68800646 0.0070327986 0.072468534
000330 b7 b6 80 bc e2 c0 f8 bc a1 c9 27 3c 8b ec f7 3b
       -0.015712125 -0.030365411 0.010240943 0.00756604
000340 07 ef 95 bc 1d 72 15 3d 0c f7 bb bc 9f 2e a9 3c
       -0.018302454 0.03648578 -0.02294495 0.020652113
000350 fb 1a 8c bc f7 a8 8a 3d 12 2d 25 3e 0e 2a 4c 3d
       -0.017102709 0.06770509 0.16130474 0.049844794
000360 13 2b 7c bc 4a 2e 71 be 0f eb 32 bf 03 db 39 bc
       -0.015391129 -0.23552814 -0.6988992 -0.01134372
000370 e1 8e ee 3e fe 80 d9 bc 52 79 4e bc b5 65 60 3d
       0.46593383 -0.026550766 -0.012602167 0.054784495
000380 ce 9f de bd 8a 6f 4e 3d 27 0c 23 3d 28 b9 e5 bc
       -0.10870324 0.05039934 0.03980651 -0.028042391
000390 9b 0f 6a 3d 43 d4 00 bf fc 0f 83 bb 8d a9 59 be
       0.05714379 -0.50323886 -0.003999708 -0.21256085
0003a0 94 87 97 3b 10 44 a6 be 56 e4 15 3e cc 1e b1 3e
       0.0046243165 -0.32473803 0.14637884 0.3459381
0003b0 33 88 ab be 34 92 1a bd 01 53 d1 bd f9 09 09 3b
       -0.3350235 -0.037737086 -0.1022091 0.0020910485
0003c0 6c 4c ae bd a4 7a fa 3c 82 3c 17 3d 92 cd c1 3e
       -0.0851067 0.030576058 0.03692294 0.3785215
0003d0 0e 2c 33 bd aa 33 8c bc d4 b2 db bd 8f ef 40 3f
       -0.043743186 -0.01711448 -0.10727468 0.7536554
0003e0 8b c3 b4 be 0e 1e c8 3e 0b 3a 98 3c 74 ba a8 3d
       -0.35305437 0.3908543 0.018582365 0.08238688
0003f0 43 30 87 be 55 7e e8 3c 2e 71 a3 bd 87 fd 2a be
       -0.26404008 0.028380552 -0.07980572 -0.16698276

output_c.bias f4 [2]
000000 77 06 b7 bd 7f 1f dd 3d
       -0.0893678 0.10797023

output_b.weight f4 [4, 400, 1, 1]
000000 95 de 79 3d 3b 02 5f bb c1 f8 1f bc 71 a9 55 3d
       0.061003286 -0.003402843 -0.009763897 0.052163545
000010 5c 60 7d 3d 0d 0a 30 bc da 7c 25 bc 09 06 ba bd
       0.061859474 -0.010744584 -0.010100568 -0.09083182
000020 03 ea 03 3c 89 ff 6e bb 6d 8a 55 3d ec cd e3 3a
       0.008051398 -0.0036468229 0.052133966 0.0017380095
000030 5d 85 44 3e 0c 14 ca bc 14 9a 2f 3b fc f1 7a 3d
       0.19191499 -0.024667762 0.0026794719 0.06126593
000040 57 92 71 3d 0f 68 08 3c 4d ac 95 bc 83 ed f8 bb
       0.05897745 0.008325591 -0.018270636 -0.007596673
000050 ff ea be ba 90 5e 81 3c be 7e 80 bc 4f 0e a6 3d
       -0.0014565884 0.015792161 -0.015685435 0.08108198
000060 0c ad 26 bb 80 94 56 ba af a7 23 3d c2 70 7b 3c
       -0.0025432734 -0.00081855804 0.039954837 0.015346708
000070 11 e1 48 ba 5d 66 49 3c d5 3f ba 3c 19 eb 37 3d
       -0.0007662932 0.012292472 0.022735516 0.04490194
000080 15 8c 16 3c cf 5c 7e 3b 26 0a 7d bd 74 7f df 39
       0.009188672 0.0038812642 -0.061777256 0.00042628834
000090 97 77 61 bc d0 aa 00 be 5b 86 15 3d 67 ec 2b bb
       -0.013761423 -0.1256516 0.036505084 -0.0026233436
0000a0 55 08 93 bc 57 87 96 ba e1 3d 70 3b 18 0b 3d 3d
       -0.017948309 -0.0011484426 0.0036657976 0.046153158
0000b0 c1 ec 81 bc dc 14 6c bc 91 01 96 3c 6a 16 9c bc
       -0.015859963 -0.01440927 0.018311294 -0.019053657
0000c0 50 13 a0 3d 7d 4b 1e bc 5e eb c2 3a e5 91 80 3c
       0.078161836 -0.0096615525 0.001487117 0.015694568
0000d0 26 42 a3 bb 94 e0 15 3d 20 e9 d5 bc d4 36 d0 3b
       -0.0049822507 0.036591128 -0.02611214 0.0063541923
0000e0 fe 86 aa bc ca 9b b6 3b 42 4a 16 3d 9b 1d 9b bc
       -0.020816322 0.0055727707 0.03669191 -0.018935015
0000f0 ae e2 0e 3d fe 2f 3c bd 7a 10 97 ba ec 97 3d bc
       0.034884147 -0.045944206 -0.0011525296 -0.0115718655
000100 98 53 31 bc 9b 52 e4 3b 73 a9 08 3b 2a 9d 40 bc
       -0.010823153 0.006967855 0.0020852953 -0.011756221
000110 82 c5 96 3c 56 1d 65 3c 93 4f b6 3c 4d 47 2f 3c
       0.018404726 0.013984045 0.02225474 0.010698152
000120 12 04 7a 3c c2 fc a8 bc f7 3c a8 3b 2a 05 8b bb
       0.0152597595 -0.020628337 0.0051342207 -0.004242559
000130 e1 c7 1a bd f0 c5 7d bc 3f 3c 56 bb 72 86 66 3d
       -0.037788276 -0.0154890865 -0.0032689718 0.05628056
000140 7d 43 dd 3b 4b 53 9f bb 43 4f 4c ba 7d 6a 84 3d
       0.00675243 -0.004862224 -0.00077937933 0.064656235
000150 74 80 33 bd 8d 27 8b 3b a3 25 f8 3b a6 dd b1 3c
       -0.043823674 0.004246658 0.007572846 0.021712136
000160 88 fe 55 bd bb a5 1e bd eb df 14 bb d5 48 c3 3c
       -0.052244693 -0.03873227 -0.0022716473 0.02383844
000170 5e df 1a bc 86 43 e6 3b 4b da e9 bb 0d e7 a4 bb
       -0.009452669 0.0070270924 -0.0071366183 -0.005032426
000180 7f 14 cd 3c f4 27 6c bc b3 03 b2 3c 58 b2 8d 3c
       0.025034187 -0.014413822 0.02173028 0.017296955
000190 53 c4 60 3d 53 b4 e4 bb 7a 0e e3 3a c2 62 dd 3c
       0.05487473 -0.006979504 0.001732304 0.02702463
0001a0 77 10 59 bc 3d b1 bb 3c e3 0f c9 3c cb 74 9a 3b
       -0.013248554 0.022911662 0.024543708 0.00471363
0001b0 ba da 0f bb c6 2d 0f bc ea 47 8a bc 26 71 1f bb
       -0.002195044 -0.008738941 -0.016879994 -0.0024328916
0001c0 a0 35 64 3d f8 53 77 38 55 90 46 bd 41 9c 15 bd
       0.055715203 5.896759e-05 -0.04847749 -0.03652597
0001d0 69 73 a7 bc ca d9 bc 3b c8 b8 9a bc 7f e7 cf 3c
       -0.020440774 0.005763267 -0.018886939 0.02537894
0001e0 6f 1b c4 b9 6d 1a 1b 3c a8 ed 1a 3c f2 f9 f2 3a
       -0.00037404473 0.00946675 0.009456076 0.0018537624
0001f0 a5 b8 e8 bb 5e 10 4a bd af af d9 3c 38 5e 3b b9
       -0.0071020895 -0.049332015 0.02657303 -0.00017868809
000200 9a 5b fa 3d de 78 f6 bb ad fc c2 3c 5a fc b3 3c
       0.12224503 -0.0075217327 0.023802126 0.021970917
000210 70 f4 d5 bb 0a df 4b bd b5 8d c9 39 03 a1 a2 bc
       -0.0065293834 -0.049773254 0.00038443287 -0.019852167
000220 a9 79 b9 3c f8 e6 49 bb 7c e9 38 3d 52 c5 75 bb
       0.02264102 -0.0030807834 0.045144543 -0.0037501645
000230 4e e5 da ba 6f 2f 0b 3e 46 48 61 bc a8 49 a9 3c
       -0.0016700418 0.13592313 -0.0137501415 0.020665005
000240 53 d5 62 bc 0b bb c1 bc c9 1a 27 bc 68 24 06 bd
       -0.013844806 -0.02364876 -0.010199257 -0.032749563
000250 61 6c 01 3d 09 d1 97 bc 36 fb 22 3b f3 bf bc 3c
       0.0315975 -0.018532293 0.0024868972 0.023040747
000260 b5 47 fc 3b ff 8c 15 3c 09 5f 1e bb 4e 0f 0d bc
       0.007698978 0.009127854 -0.0024165532 -0.008609606
000270 9e 6e e6 bc 97 51 bc 3c f8 1a e2 bb 38 6c c0 3c
       -0.028128918 0.022988124 -0.0069001876 0.023489103
000280 94 ce ad bd e1 2e 05 3c 73 58 a1 bb 78 b0 c3 bc
       -0.08486667 0.008128853 -0.004923874 -0.023887858
000290 6c ae 13 3c 89 d8 70 bb 12 51 7d 3b 31 8b b9 bc
       0.009013753 -0.0036750159 0.0038653058 -0.02264938
0002a0 35 2e c1 bc 08 ab 3e 3d 00 9b ff bb 78 71 dd 3a
       -0.023581604 0.046549827 -0.00780046 0.0016894778
0002b0 96 7a b2 3c 50 fb 9e ba ce 8c 4e bd 9a c9 b7 bc
       0.02178697 -0.001212934 -0.05042725 -0.022434998
0002c0 6d 0c 23 3d 81 dc f5 3a 3a 1b 4a 3c c3 94 bf bc
       0.039806772 0.0018757732 0.012335593 -0.023386365
0002d0 b1 e0 14 bb df 99 c6 bb 51 05 7c bb 55 90 9c bc
       -0.0022716934 -0.0060608233 -0.0038455317 -0.019111792
0002e0 b8 75 82 bd 71 7b 7e 3b 13 4d 3a 3c 42 43 50 bd
       -0.06370109 0.00388309 0.011370915 -0.050845392
0002f0 00 46 8a 3d ea bf 0a ba 2f d3 f6 3b a5 4c bb 3d
       0.06751633 -0.00052928797 0.0075324993 0.09145478
000300 f2 71 8e 3c f8 79 13 bc 9a fa e2 3c ef 86 a8 3b
       0.017388318 -0.009001248 0.027707387 0.0051430385
000310 32 cd 28 3d 13 34 8b 3c 46 77 80 3d 5b ff ba 3c
       0.041211314 0.016992604 0.062727496 0.022826841
000320 dd 8b ce 3c a9 3d fa 3b be 20 4e 3c d3 50 34 bd
       0.025213176 0.007636745 0.0125810485 -0.044022392
000330 29 03 85 3c ce a6 d0 3b 7f 5d 41 bc 7b a2 59 bc
       0.016236858 0.006367541 -0.011802076 -0.013283367
000340 39 65 79 bb 62 49 09 3b ea bc 0e bb 6e a5 f3 3a
       -0.0038054718 0.002094828 -0.0021780082 0.0018588731
000350 4b e6 c0 bc 21 10 06 bd 3b 3f 61 bc 2c 43 1c bd
       -0.023547312 -0.032730225 -0.0137479855 -0.038149998
000360 45 5d 1c bc d6 70 b6 bc 15 31 ea 3c 70 85 f3 bb
       -0.009543722 -0.022270601 0.028587857 -0.0074316785
000370 7f 4a 3b bd 58 7a 9e ba d8 ce f8 bc 7b 44 ba bb
       -0.045725342 -0.0012090905 -0.030372068 -0.005684433
000380 d5 15 1e bc 4f f2 82 bb f5 26 75 ba cb 6c 8b bc
       -0.00964876 -0.0039961706 -0.00093518134 -0.01701965
000390 e8 9d f3 bc f9 1f 01 3d 7e 2e 45 bb 9a f9 77 3d
       -0.029738382 0.031524632 -0.0030087526 0.060540773
0003a0 9e 4c af 3b 94 09 ce bb 5d 09 b6 3b a3 2b ac 3c
       0.0053497097 -0.006287763 0.0055553154 0.021016901
0003b0 ac 63 46 bd 0d 41 73 3d 73 4f 44 bc ca e2 77 bb
       -0.0484349 0.05938821 -0.011981833 -0.0037824386
0003c0 e2 b8 5d 3c 72 0b 80 bc ef fc 4e 3b 61 22 17 bd
       0.013532849 -0.015630458 0.0031583866 -0.03689802
0003d0 8c c6 5a bd ee 99 1b 3c 3a 84 81 3d 43 a6 13 3d
       -0.053412005 0.009497149 0.06324048 0.03604723
0003e0 6d b3 bd bb 92 e1 01 bd ff b5 e3 bb 2d 10 57 bc
       -0.0057892115 -0.03170926 -0.006949186 -0.013126415
0003f0 27 92 48 3d af 8f 09 bc d0 af a6 3c f3 60 7d bc
       0.048967507 -0.008396073 0.020347506 -0.015465009

output_b.bias f4 [4]
000000 18 76 57 3e 0e f6 27 3e bd d4 02 3e 79 23 e5 3d
       0.21041143 0.16402456 0.12776466 0.111884065
